GCN_checkpoint.pt (torch, 969897 bytes, 6 tensors)

conv1.bias f4 [64]
000000 8e 2b ad 3d a9 6b b3 3d 97 ff d7 3d cf 76 b3 3c
       0.08455573 0.08760769 0.10546797 0.021907238
000010 ce 93 80 3d 8f eb 29 3e c8 74 24 3e 99 84 aa 3d
       0.062781915 0.16593765 0.16060174 0.08326072
000020 f8 9d 44 3d c3 eb bc 3d 38 73 8a 3d 4e e6 45 3e
       0.048002213 0.092246555 0.067602575 0.19326136
000030 0d 18 f7 3d 6a c4 94 3c aa 20 1a 3e 6d 9a b9 3d
       0.12065134 0.018160064 0.15051523 0.090626575
000040 2f da 9a 3d 97 de b9 3d 01 5b eb 3a 15 96 27 3c
       0.075611465 0.09075659 0.0017956198 0.010228653
000050 79 e8 3f 3c a7 70 c0 3d f7 c9 11 3e f0 2d d0 3d
       0.011713141 0.09396487 0.142372 0.10165012
000060 bb 13 c7 3d 6e 13 de 3d 87 a9 61 3d e4 97 de 3d
       0.0972056 0.1084355 0.055093314 0.108688146
000070 ca 5b 13 3e 1b 80 e9 3d bd ab 1d 3e c2 35 0b 3e
       0.14390483 0.11401387 0.15397544 0.13594726
000080 67 69 30 3e 0a 2a 10 3e 1c 3a 88 3d ad 95 05 3e
       0.17227708 0.14078537 0.066517085 0.13045378
000090 33 90 7a 3d f3 ed 8b 3d e4 7b b2 3d 42 1d b3 3d
       0.061172675 0.068324946 0.087150365 0.08745815
0000a0 ef 63 33 3c 74 c6 d5 3d 5f 95 99 3d 24 06 79 ba
       0.010949119 0.104382426 0.074991934 -0.0009499511
0000b0 45 07 94 3d 29 58 8d 3d 2b cd 99 3d 1f 5d 90 3d
       0.07227949 0.06901581 0.07509836 0.070490114
0000c0 75 cf b6 3d 7e e5 70 3d b6 82 f6 3d 93 d8 9b 3d
       0.08926288 0.05881261 0.1203665 0.07609668
0000d0 f1 7d 16 3e bc 6a aa 3d fc e4 a7 3d 31 8b b7 3d
       0.1469648 0.08321139 0.08197972 0.089620955
0000e0 02 a8 0c 3e 36 32 dc 3d 42 63 70 3d 4a 93 22 3e
       0.13735965 0.107517645 0.05868841 0.15876499
0000f0 83 f1 e9 3d a5 b1 17 3e 81 cb f9 3d 9a 36 12 3d
       0.11423018 0.1481386 0.121970184 0.035696603

conv1.lin.weight f4 [64, 3703]
000000 32 e0 85 bd 7d cd 03 bd 81 58 8b 3b 2d ba 38 bd
       -0.065369025 -0.03217839 0.004252494 -0.045099426
000010 06 8a 29 3b 20 a8 3b bc 83 19 dc 39 b6 33 74 ad
       0.0025869622 -0.011453658 0.00041980678 -1.3881276e-11
000020 5b 61 f3 2c 76 1f 3c bc 65 84 0e 3b 52 d9 13 3c
       6.917284e-12 -0.01148211 0.0021746394 0.009023981
000030 d6 b9 f4 bc f7 18 7e bd 7d a0 9a ba 02 1e a8 3b
       -0.02987377 -0.062035527 -0.0011797097 0.0051305303
000040 1a cc 9b bc 5b 63 1b b8 cf 01 60 3c dc 9c 67 bc
       -0.019018222 -3.704741e-05 0.013672306 -0.014136519
000050 de cf eb 3b 54 19 09 bd f1 29 b9 bd bb c6 62 bc
       0.0071964106 -0.03347142 -0.09041203 -0.013841326
000060 2b ae d8 3c 60 c5 ac bb 4a a9 07 3d 58 1e ac 3c
       0.026450237 -0.0052725524 0.03312043 0.021010563
000070 d6 80 d5 bc a6 f2 0c bd c5 7a 90 3a 15 ef a2 3d
       -0.02606241 -0.034411095 0.0011022916 0.079557575
000080 c4 be 79 bd 2e f4 bd 3c e4 08 08 3d 13 b4 38 3c
       -0.060972944 0.023187723 0.033211604 0.011273402
000090 7c c7 2b bd b8 17 be 3c 5b 89 e1 bc c0 c9 87 ba
       -0.04193829 0.02320467 -0.027531317 -0.0010359809
0000a0 a6 a6 81 3d fb 7d f4 bc a1 46 78 bd e2 bd 67 3a
       0.06330614 -0.029845228 -0.060614232 0.00088402454
0000b0 fb 15 95 bd 96 eb 45 bc 1c 35 53 bc ec cb e6 ba
       -0.07279583 -0.012080094 -0.01289108 -0.0017608381
0000c0 b6 19 4e 3d 27 f3 e3 39 fb 2b 86 2c 0b ae a1 3b
       0.05031749 0.00043477977 3.813392e-12 0.0049340776
0000d0 40 2a 12 3c a4 67 80 3c 3f 6a 2d bd f6 d3 5e bb
       0.008921206 0.01567442 -0.042337652 -0.003400085
0000e0 68 ca 9e ba fc 42 9c 3d 56 9b 25 3b 4f 4b 88 3c
       -0.0012114765 0.07629964 0.002526959 0.016637472
0000f0 47 db d4 b8 7e a0 09 3e 31 8a 09 2d 8b f7 7a b9
       -0.00010149791 0.13440129 7.818233e-12 -0.00023934075
000100 98 a8 66 3a 12 be 01 be fd ab 83 b9 54 09 b9 bb
       0.0008798926 -0.12670162 -0.00025114408 -0.005646864
000110 8b 8a d5 bb 3b 60 6e 3d 17 13 31 3b 8c ec 1d 3c
       -0.0065167597 0.05819724 0.0027019435 0.009638917
000120 52 0e 7c 37 44 3a cf 3d 9b 1e f4 ba c6 78 eb bc
       1.5023705e-05 0.10118535 -0.0018624844 -0.028744113
000130 91 9b e0 3d 75 8b ae bc 99 b3 08 bc 53 6d af 2c
       0.10967172 -0.021306733 -0.008343601 4.9859366e-12
000140 1b 00 c2 bc b0 94 81 3c e1 19 72 bd 01 a6 c5 ba
       -0.02368169 0.01581797 -0.05910671 -0.001507938
000150 3d 84 ff ba c6 14 b3 ba e0 a8 52 3c 92 2b 4a 3d
       -0.0019494366 -0.0013662807 0.012857646 0.04935796
000160 7a fa 74 2d 29 bd 06 bc 87 83 01 3b e8 1e a0 ba
       1.3925411e-11 -0.00822381 0.0019762234 -0.0012216242
000170 38 03 1f 3c 44 39 d8 ba 99 01 8e 3b 52 eb 53 bb
       0.009705357 -0.0016496559 0.0043336865 -0.0032336307
000180 fe ea 5e 3c 97 dd 34 3c 6b 5a ad bc d0 6c 03 2d
       0.013605831 0.011039159 -0.021161279 7.470649e-12
000190 46 c6 c5 ac 2e 53 2a bb 64 a8 9a 3d 6f 22 1b bc
       -5.6210895e-12 -0.002598952 0.07551649 -0.009468659
0001a0 4f d3 d5 36 0a 06 6a 3c de 21 a1 3a c1 0b 82 3a
       6.372494e-06 0.014283666 0.0012293418 0.0009921716
0001b0 98 0f 04 bb 7a 3d 22 bd 5c 14 f3 3d be 3b 38 3d
       -0.0020150896 -0.03960941 0.118691176 0.04497885
0001c0 4c 19 13 bc 71 52 be 3b d8 73 a9 3d ff 96 59 ad
       -0.008978199 0.0058081676 0.082740486 -1.236855e-11
0001d0 94 6f 54 2d b9 56 82 2c ec b6 80 3b c6 1b ec 3b
       1.207558e-11 3.7044504e-12 0.003928056 0.0072054593
0001e0 2a 1f df b3 ea 5b c2 3b 0c 31 f4 bc 5c cf 40 3a
       -1.03899154e-07 0.005931367 -0.029808544 0.00073551177
0001f0 46 8d 7b bd b6 c3 75 bc c6 98 ea ac 73 fa 67 3c
       -0.061414026 -0.015000274 -6.6676413e-12 0.014158833
000200 2c c2 12 bd 97 a8 df 3c 7b e3 68 bb 6d 79 47 3d
       -0.035829708 0.02730207 -0.003553598 0.048699785
000210 fe 80 03 3b 0e 99 58 3b b4 95 9a bb 51 9b 2f bb
       0.00200659 0.0033050212 -0.004717553 -0.0026795457
000220 1e b9 e9 3b 85 26 5f 3c b2 26 56 3d 4f fa ea 3b
       0.0071326634 0.013620024 0.052282996 0.0071709524
000230 4e 76 ce 3c 66 2b 69 3a 41 f0 db 3c a3 27 52 3c
       0.025202896 0.00088947115 0.02684796 0.012826833
000240 dc a0 09 2a 2f 25 91 2c 9a c7 64 3c 15 ff 2c bc
       1.2223854e-13 4.125276e-12 0.013963604 -0.010558863
000250 4d a9 cc 3b ab be 45 bb a1 14 e1 ba 39 ca 67 bb
       0.006245768 -0.0030173461 -0.0017172286 -0.0035368337
000260 78 09 c4 ab c5 f8 aa ad bf a9 6a 3a 7e e8 86 3d
       -1.3929266e-12 -1.9437238e-11 0.0008951686 0.06587313
000270 fe 8c 0f 3d 64 7b 74 2d 8b 53 ce 3b f3 f0 1f 3c
       0.03504657 1.3897192e-11 0.00629658 0.009762037
000280 a6 6f 84 bb 9d 8c 83 3a 48 47 4d b8 b4 d7 f5 3c
       -0.00404163 0.0010036413 -4.8942195e-05 0.030010082
000290 b7 82 8c 2e 3c f1 17 3d 6b c1 63 3d b7 86 35 3a
       6.3896825e-11 0.037095293 0.05560438 0.0006924676
0002a0 e7 9f c7 3d 06 b0 a1 3d 43 af 5b 3c 10 0e b4 3d
       0.09747296 0.07894902 0.013408485 0.08791745
0002b0 f5 8e b0 39 98 7e ac 3b fd a1 ab 3b 6a ce 72 3c
       0.00033675847 0.0052641146 0.0052378164 0.014819721
0002c0 8a 70 45 3a 77 d3 c8 3d 3b aa 96 3b 29 b8 0a 3d
       0.0007531723 0.09805959 0.00459793 0.033867035
0002d0 a5 26 88 ad 71 f4 2b ad 90 56 9f bc 2f 27 96 2c
       -1.5478572e-11 -9.7745015e-12 -0.019450456 4.2676067e-12
0002e0 da 18 15 3b 50 97 98 39 b9 a5 ec bc 35 4d e5 bb
       0.0022750408 0.00029104436 -0.028887616 -0.006997729
0002f0 c6 e2 31 bc 1e 8f d5 bb ae 36 79 3a 93 d4 a4 ad
       -0.01085729 -0.006517305 0.0009506744 -1.8739043e-11
000300 48 4b a1 3b 99 94 3b 3c b0 ea a5 3b 71 a9 f5 ba
       0.0049223043 0.011449003 0.0050633773 -0.0018742514
000310 a9 1d 3b bd 3f ab 2b 3c 23 0b 39 3c ff e8 c5 3c
       -0.045682583 0.01047784 0.011294159 0.024158953
000320 ae 31 91 bc c7 45 a6 3b 9a a1 e3 3b 31 00 9b bc
       -0.017723884 0.005074236 0.0069467546 -0.01892099
000330 19 00 ba 39 4b 47 01 39 43 6a 96 bc 3c ba be bb
       0.00035476757 0.00012328957 -0.018361216 -0.0058205407
000340 a3 5b bd 3c 2f 0b 76 3c f8 96 87 3d 32 97 83 bd
       0.023114985 0.015017315 0.06620592 -0.064253226
000350 b9 54 1e 3d a6 b2 47 bd f6 53 7c bc cb 27 e3 bb
       0.038655017 -0.048754357 -0.015400877 -0.006932234
000360 69 b6 4c 3c 75 b2 ef bb f8 9d 52 3a 95 2a bb bc
       0.012494662 -0.007314975 0.00080344034 -0.022847453
000370 b9 aa bb 3a ff fd a3 bb 95 52 9e bd 60 fc db 3a
       0.0014317847 -0.005004644 -0.07730595 0.0016783588
000380 a3 69 0d bc 6f 1a f7 bc f9 2a c0 bc ac 71 c7 bb
       -0.008631143 -0.030163972 -0.023457991 -0.006086549
000390 06 a1 05 3c 7c 04 4f 3d 2c be 48 3d 7f 6c 08 bb
       0.008156067 0.050541386 0.049009487 -0.0020816622
0003a0 94 a0 8d bc 9c d1 00 3b 13 b9 6e bb a9 68 3b ba
       -0.017288484 0.0019656187 -0.003642623 -0.00071490795
0003b0 48 30 ef 3c 6e de 03 bd 88 9c 79 3c f7 e0 91 3c
       0.029197827 -0.032194547 0.015235074 0.017807467
0003c0 5f c1 61 3c 81 c8 7a 3c c4 40 9b 3d 6b b8 aa bb
       0.013779013 0.015306593 0.075807124 -0.0052099726
0003d0 4f bc 82 3c 87 fb 96 3c 70 25 72 3d 66 c2 8e 3d
       0.015958933 0.018430484 0.059117734 0.06970672
0003e0 b2 d3 cb 3c be 48 38 bd 83 98 af bb f4 bb 4e 3d
       0.024881218 -0.044991247 -0.005358757 0.050472215
0003f0 a2 75 ce 3b be 1c 0b bd 1e d8 a0 bb 13 74 01 3a
       0.006300644 -0.033962958 -0.0049085757 0.0004938256

conv2.bias f4 [64]
000000 03 bb 4e 3d 0c b4 1d 3e 72 d1 9d 3d 5b cd 90 3c
       0.050471317 0.15400714 0.07705964 0.017676046
000010 03 82 2c bb f6 a0 19 3e e6 86 8a 3d 41 56 65 bd
       -0.002632261 0.15002808 0.06764011 -0.05599046
000020 37 69 18 3e 92 50 45 3e 08 6e 1d 3e 61 49 99 bd
       0.14883886 0.19269016 0.15374005 -0.07484699
000030 6a 0c 69 3e ab 68 63 3d 1c a3 01 be 40 ce 74 3e
       0.22758642 0.05551974 -0.12659878 0.23906803
000040 e9 36 13 3d 0a 64 7c bc 69 70 31 3e 51 75 88 3c
       0.03594104 -0.015404711 0.17328037 0.016657503
000050 3c f3 11 bd 65 b4 1a 3e d1 9f 0f 3e d1 a0 7a 3e
       -0.035632357 0.15107878 0.14025809 0.24475409
000060 4d 1a f5 3d 39 e1 23 bc 2b 6c 6e 3e 15 aa d0 bd
       0.11967907 -0.010002428 0.2328345 -0.101886906
000070 e9 50 0c 3e 96 f2 5a 3d 95 08 5e 3e 6c 1c 0a 3d
       0.1370274 0.053454004 0.21682961 0.03371851
000080 64 3c 2f bb 8d 6e 92 bc 7b f2 94 3d 81 2d 88 3d
       -0.0026738876 -0.01787498 0.07272812 0.06649304
000090 4d 65 7d 3e 0c 1c 6f 3d d8 80 4f 3e 58 ca 3c 3e
       0.24745674 0.058376357 0.20263994 0.18436563
0000a0 6c f0 a8 3d d4 1e ee 3d 48 2a 68 bd cf 34 8c 3d
       0.08248982 0.11626974 -0.056680948 0.0684601
0000b0 62 d4 d7 3c 49 ca f9 3d ab 57 cb bc 42 01 42 3e
       0.02634639 0.12196786 -0.024822077 0.18945792
0000c0 52 85 5a 3d 12 f7 0f bd a5 0e 2f bd ce 49 f3 bb
       0.0533498 -0.035147734 -0.042738575 -0.0074245697
0000d0 79 a2 26 3e d9 49 1a 3e 26 de 58 3e fb 7d 68 3e
       0.16272916 0.15067233 0.21178493 0.22704308
0000e0 14 bf 3a 3d 1c 34 38 3e 2b f9 7a 3c 9f 40 24 3e
       0.045592383 0.17988628 0.015318195 0.16040276
0000f0 29 a1 49 3e 37 84 4d bc f1 0e 36 3e 19 18 97 b6
       0.19690384 -0.0125437295 0.17779137 -4.502956e-06

conv2.lin.weight f4 [64, 64]
000000 fd 8a d0 3b 56 51 5d 3d ad 14 46 3e 48 69 3f 3c
       0.006364225 0.054032646 0.19343825 0.011682816
000010 18 9a bc 3d ec a1 39 3d ce c6 c3 bb 05 ba 01 be
       0.092090786 0.045320436 -0.005974627 -0.12668617
000020 75 76 e0 3c a5 b8 87 bd 84 ca 3a 3d 40 6c bb 3d
       0.027400235 -0.06627015 0.04560329 0.091515064
000030 b3 41 e6 bc d4 aa c6 bd 32 5c 5d 3d 99 48 11 3e
       -0.0281075 -0.09700552 0.054043002 0.1418785
000040 d0 c5 aa 3d 6c 29 cf 3d fb 18 03 3b dd ef b6 bd
       0.08338511 0.101153225 0.0020003903 -0.08932469
000050 7f a8 30 bd 3b 7b 06 be da 4a 0c 3e 9a 6f 0d be
       -0.04312944 -0.13132946 0.13700429 -0.13812104
000060 1d 79 50 3d e1 27 1e 3e 6f d5 a1 3d 9b ea b1 bd
       0.050896753 0.154449 0.07902037 -0.086873256
000070 73 02 1a 3d 3b 83 4d 3c b7 6c dc 3d 19 a6 a1 3d
       0.037599992 0.012543495 0.10762923 0.07893009
000080 a5 bc 0f 3e 70 b5 23 3c ff fd da bc b6 c5 ab bc
       0.14036806 0.009991989 -0.026732443 -0.0209683
000090 95 14 83 3c c7 e0 04 bc 75 3b d3 3d 3a 5a 03 be
       0.016001025 -0.008110232 0.10314075 -0.12827387
0000a0 3c 48 33 3d 52 06 ff 3d a1 69 db 3d 92 d3 a1 bd
       0.04377006 0.124523774 0.107135065 -0.07901682
0000b0 05 cc 53 3d ff dc 0b be 3c 18 84 3d b1 a9 cb b9
       0.05170824 -0.13658522 0.06449935 -0.00038845607
0000c0 87 35 a9 3d 69 49 f1 3c fd 7b dc bd 69 f9 49 bc
       0.08262163 0.02945395 -0.107658364 -0.01232753
0000d0 17 93 f8 3c 6c 69 80 bb 3e af b9 3d f4 1e 43 bd
       0.030343575 -0.0039188173 0.09066628 -0.04763694
0000e0 47 15 18 3e 44 d1 db 3d 1e 2c 94 3d 4f 65 0d 3e
       0.14851867 0.107332736 0.07234977 0.13808177
0000f0 56 56 d7 bc 11 f2 2b bc 9e 9e ca bb 33 d8 45 3d
       -0.026286285 -0.010494725 -0.0061834594 0.048301887
000100 46 3b 1b bd 63 f8 fd 3d 83 bf 0c 3d 2e 8b 8e bd
       -0.037898324 0.12400892 0.034362327 -0.0696014
000110 aa ff 8f 3d 84 05 6b 3c ed d0 57 3d 49 2e f1 bd
       0.07031186 0.014344577 0.05268948 -0.11776406
000120 a2 e0 78 bb b8 01 0a be 7a 48 b0 bd e9 de 29 3d
       -0.0037975688 -0.13477218 -0.08607574 0.04147235
000130 24 23 1f 3c ed 81 44 bd 2b 75 af 3c 51 85 a1 3d
       0.009712968 -0.04797547 0.021418175 0.07886756
000140 df 67 f3 3d 7d 04 04 3e 89 5b 15 bd 6b d7 32 bd
       0.11885046 0.12892337 -0.036464248 -0.04366247
000150 b8 3d 4e bd 61 70 ed bc a3 f2 10 3e 2f cd 06 3c
       -0.05035183 -0.02898425 0.14155059 0.0082276305
000160 01 13 68 3d 6e b5 42 3e c9 f2 26 3c f1 cd 1a 3d
       0.05665875 0.19014522 0.01018972 0.037794057
000170 c9 f7 85 bd 57 0c 1e bd 11 88 bf 3d b6 6c 6a 3d
       -0.06541402 -0.038585987 0.093521245 0.05723258
000180 90 1b ac bc c1 1d 14 3d 4c 6a 88 bd 48 23 a0 bc
       -0.021009237 0.036161188 -0.066608995 -0.019548073
000190 58 95 d2 ba fe 66 03 3e 12 c8 c1 3c f3 50 a9 3d
       -0.0016066236 0.12832257 0.023654971 0.08267393
0001a0 15 76 36 3d 66 46 b2 3d df 41 d4 3c 21 66 0d be
       0.044546206 0.08704834 0.025910316 -0.1380849
0001b0 18 08 09 be 45 15 85 3c 0c 36 0a 3d e7 52 a0 3d
       -0.13381994 0.016245494 0.03374295 0.07828312
0001c0 bd 91 7b bb 66 4b c6 bd 72 d2 65 3d 81 8a 48 3c
       -0.0038386427 -0.0968235 0.0561089 0.012240053
0001d0 d8 e7 2d 3d 8d 49 00 3e e5 2d 3b 3e fc 81 08 bd
       0.04245743 0.12528057 0.18279226 -0.033327088
0001e0 29 7a 29 3e 97 5c 15 3e 72 69 ec ba 6d c4 a5 3b
       0.16550507 0.14586101 -0.0018036796 0.005058816
0001f0 20 9e bd 3d c7 db 1f bc 90 4b c0 bc 82 5a cd 3c
       0.092586756 -0.009756989 -0.023473531 0.025067572
000200 1a 7b d6 3d 9a 28 46 3e 1d 7b 92 3d 08 79 d1 3d
       0.104726985 0.19351426 0.07152388 0.10228163
000210 17 1d 26 3e 2c 90 bd bd cb 20 bd bd 04 84 7a bd
       0.16222034 -0.09256014 -0.092347704 -0.061161056
000220 1a c8 37 bd e1 1f d6 3c 4f c2 86 bc 5f 6e 84 bd
       -0.044868566 0.026138248 -0.016450075 -0.06466364
000230 ca 46 9d 3c c7 51 12 3e e9 7d 1d bd e7 a6 6f 3d
       0.019198794 0.14289008 -0.038450155 0.05850878
000240 63 eb 05 3d 34 76 29 3e fa 18 60 3e 85 c8 cf 3d
       0.032695185 0.16548997 0.21884528 0.10145668
000250 6c 79 5b 3d 10 f5 c6 3d f0 2c 50 3d 21 57 88 3d
       0.053582594 0.09714711 0.050824106 0.066572435
000260 cb 17 64 3e 8e 4b 18 3e 5b 66 1c 3c 07 da 91 bd
       0.22274701 0.14872572 0.009545888 -0.071216635
000270 d5 b9 c7 bd dc 7c 34 be 19 9c 26 bb 9a 41 59 bc
       -0.097522415 -0.17625755 -0.0025422631 -0.01326027
000280 cc 92 c8 bc 1a 9e 12 bc 11 36 08 3e 9b a9 ab 3d
       -0.02448406 -0.008948827 0.13301875 0.08381959
000290 1c 2f b3 bd 1a 83 98 3c 70 05 57 3e 90 e2 28 3e
       -0.0874922 0.018617202 0.20998168 0.16492677
0002a0 10 13 32 bd f8 e9 b7 3c a8 51 4b 3e c0 e5 10 3e
       -0.04347521 0.022450432 0.19855368 0.14150143
0002b0 2e d0 ae 3d 44 8d df 3d b9 26 ac 3c 42 dc 07 3e
       0.08535801 0.10915616 0.021014558 0.13267615
0002c0 d5 56 5d bd 15 c0 b6 3b a8 5a d0 bd 72 7e 10 3e
       -0.054037888 0.005577097 -0.10173541 0.14110735
0002d0 2b 83 18 bd f9 bd 18 bd 84 11 56 3d 1a ec dd bd
       -0.037234467 -0.037290547 0.052262798 -0.108360484
0002e0 4b 33 d8 3d c4 9a 5e 3e ab 08 2c bd a5 68 4e 3c
       0.10556658 0.21738726 -0.042000454 0.012598191
0002f0 22 89 79 bb 95 6f 9c 3d 0c 95 1b be fd 93 0c 3e
       -0.0038076122 0.0763847 -0.15193576 0.13728328
000300 ce 7f 20 3e 7c 13 96 3d 71 5f 10 3e b1 76 0a 3e
       0.15673754 0.07327935 0.14098908 0.1352184
000310 46 18 f4 3d 53 a5 e0 bc 8b 1d 3e be 38 4d 87 3d
       0.11918692 -0.027422583 -0.18565957 0.06606525
000320 06 b1 ff bb 00 57 16 3e 48 71 d7 3d 6f 14 b3 bd
       -0.0078030853 0.14681625 0.105196536 -0.08744132
000330 2b 2a c3 3c c9 d3 4a 3e eb 60 25 bd c2 23 72 3d
       0.023823818 0.19807352 -0.04037563 0.059116133
000340 63 29 d7 bc 09 b4 2f 3d 31 6c 76 3e f7 9e 20 3e
       -0.026264852 0.042896304 0.24064709 0.1568564
000350 0c 22 a1 3d 9b 04 47 3d 4b d5 66 bd 7a c0 35 3d
       0.07867822 0.048588376 -0.056355756 0.044373013
000360 f3 0c 6e 3e e5 ab cc bb f9 a7 ad 3b 4a c9 30 be
       0.23247127 -0.0062460774 0.005299565 -0.17264286
000370 1b c5 6d bd 39 a6 06 be 44 ee 16 bc ab 36 42 bd
       -0.058049303 -0.13149346 -0.00921208 -0.047415417
000380 2a d6 94 3c 0b 0d f5 bd 8c 68 30 3e 47 76 d0 3d
       0.018168528 -0.119653784 0.17227381 0.101788096
000390 97 26 2d bd 9f 0c f4 bd c5 f0 8a 3e 59 4c d6 3d
       -0.04227313 -0.1191647 0.27136818 0.10463781
0003a0 99 1e 49 bb 81 3f 06 3d da f1 80 3e 4c f9 8a 3e
       -0.0030688404 0.032775406 0.25184518 0.27143323
0003b0 71 06 34 3e 41 54 31 3c 1c 9c 52 3c 59 18 96 3d
       0.17580582 0.01082331 0.012854602 0.07328863
0003c0 16 97 89 bc 32 14 1f 3e 5b a9 4e be e9 f4 2a 3e
       -0.016795676 0.15535048 -0.20181791 0.16694988
0003d0 6c 6b ed bd dd 1a 1a be f1 bb c4 bd 66 09 d1 bd
       -0.11592755 -0.1504931 -0.096061595 -0.10206871
0003e0 4c cf 58 3d d2 56 d3 3d 16 b6 2f bb 21 76 b0 3d
       0.05293207 0.10319294 -0.0026811413 0.08616281
0003f0 64 da 23 be 83 6e a3 3d 60 92 11 be d4 cd 24 3e
       -0.16001278 0.07980063 -0.14215994 0.16094142

lin.weight f4 [6, 64]
000000 6d f7 6c be 73 3a 3f be ea e5 99 3e 3d d1 e1 3e
       -0.2314126 -0.1867464 0.30058223 0.4410495
000010 fc b0 85 3e 77 df 4a 3e c7 40 5c 3e e5 25 a8 3e
       0.2611159 0.19811808 0.21509086 0.3284141
000020 9d ab ab be 47 3f 5d 3e 35 de 1b 3d fa 81 9c 3e
       -0.33529368 0.2160617 0.03805371 0.30567914
000030 d5 b3 97 be a9 27 43 be 17 74 8b 3e b1 52 80 3c
       -0.29629388 -0.19058098 0.27237007 0.01566443
000040 b6 f2 99 be 6f 57 b2 be 9f 98 f6 3d 9f 40 85 3e
       -0.30067986 -0.34832332 0.12040829 0.26025864
000050 1d 6c b8 3d 1c 62 98 be 2e 2d 9c be ed fb 8f bd
       0.09004996 -0.29762352 -0.3050322 -0.07030473
000060 2f 7b 91 be 7e c1 94 be 75 8a 8c be be e7 d8 3d
       -0.28414294 -0.29053873 -0.27449384 0.10591076
000070 ca 42 cd bc b5 4f 22 3e f7 32 77 bd e1 25 5b 3d
       -0.025056262 0.15850718 -0.06035134 0.05350292
000080 15 1c 24 be 17 0a 0f be c4 b4 95 3d b1 ee db be
       -0.16026337 -0.13968693 0.07309869 -0.42955545
000090 ed 04 89 be 56 7b 27 3e 45 4d b2 be a4 09 b1 3e
       -0.2676157 0.16355643 -0.34824577 0.34577668
0000a0 e1 05 39 bd 43 3c 7f be 94 5a 04 3f ef ed 66 3e
       -0.045171622 -0.24925332 0.5170071 0.22551702
0000b0 01 8b 4f be c4 b4 1c be c8 62 57 3d 36 bc a2 3e
       -0.2026787 -0.15303332 0.05258444 0.3178422
0000c0 f9 e7 b6 be 43 88 36 be 5f a2 c6 3d e0 8c a7 3e
       -0.35723856 -0.17825417 0.096989386 0.32724667
0000d0 0a f1 73 bc 85 39 75 be bc e1 23 3e 5f c2 9c be
       -0.014889011 -0.23947723 0.1600408 -0.30617043
0000e0 f1 b3 9a bd 60 97 81 3d a4 ab 09 3d 27 b8 9a 3e
       -0.07553852 0.063277006 0.033610955 0.30218622
0000f0 8f 81 a7 be 1a d8 4a be bf 4d 23 be 89 2d e8 b5
       -0.32716033 -0.19808999 -0.15947627 -1.72986e-06
000100 2e 93 4b be 05 b9 00 be 56 25 97 be cb 08 95 be
       -0.19880363 -0.1257058 -0.29520673 -0.2910827
000110 ed 85 a0 3e de c0 4d 3e 28 bd 43 be 8f dd b3 3c
       0.31352177 0.20093104 -0.19115126 0.021956233
000120 c8 c0 8f 3e 01 53 c4 be 73 ca 82 be e2 05 c2 3d
       0.28076768 -0.38344577 -0.25545081 0.09473778
000130 ac 71 67 3d 53 39 b5 be a9 64 bf bd 82 b6 c5 be
       0.05650489 -0.35395297 -0.09345371 -0.38615805
000140 4c d2 a3 3e f7 fd 8a 3e 52 af 90 be 43 ad 64 3e
       0.3199638 0.27146885 -0.2825876 0.22331719
000150 e4 7b d6 be 74 92 ce bd 4e ad fb 3c 19 63 6f be
       -0.41891396 -0.100865275 0.030722287 -0.23377647
000160 a3 3c aa 3e 04 c1 4c 3e 09 2b c2 be f2 fe ae 3e
       0.33249387 0.19995505 -0.37923458 0.34178883
000170 af de a1 3e 96 15 23 3e a9 b5 de be eb bf 25 3e
       0.31615207 0.15926203 -0.4349797 0.16186492
000180 67 90 ba bc 54 09 87 be 77 a1 14 be aa d8 f0 3d
       -0.022773935 -0.26374304 -0.14514719 0.117600754
000190 c2 07 97 3e b0 0b 0f 3d 4f 72 cd be ed 0d ce 3d
       0.29498106 0.034923255 -0.40126273 0.1006125
0001a0 79 38 0e bd 00 8d 9b be 02 a8 db be 08 50 a1 be
       -0.034721825 -0.30381012 -0.42901617 -0.31506371
0001b0 fe fc d0 bd 46 0c 12 3e 1e 78 61 3e d0 a2 9a be
       -0.102045044 0.14262494 0.22018477 -0.3020234
0001c0 d6 4b be 3e e4 51 96 3e e5 4b a2 be a6 d5 90 3e
       0.37167233 0.29359353 -0.31698528 0.28288
0001d0 07 76 a5 3e 62 44 38 3e ce 85 12 be 3a 1d d4 be
       0.3231661 0.17994836 -0.14308855 -0.41428548
0001e0 9d 89 df bc 27 9f 71 3e 07 b9 92 be ce 04 a2 be
       -0.027287299 0.23595868 -0.2865679 -0.3164429
0001f0 82 be 9a bd 32 57 d4 bd fd e2 64 3e 46 dc 9e b5
       -0.07555868 -0.10368194 0.22352214 -1.1836025e-06
000200 e3 67 59 bd da c6 03 3c bd bc b5 be 73 d1 8e be
       -0.05307759 0.008043015 -0.35495558 -0.27894172
000210 1d e5 a5 be 09 4d 5d 3e f6 3b 8c bd 1d 58 5c be
       -0.32401362 0.21611418 -0.06847374 -0.21517988
000220 be 09 56 3e f4 8e 30 3e b5 e3 de bc 99 29 b9 be
       0.20902154 0.17242032 -0.027208189 -0.3616455
000230 bf 08 99 3e 31 db 3d 3d 38 06 7c be b0 5c 91 3e
       0.29889485 0.046351615 -0.24611747 0.28391027
000240 7d 6a fe bd 9d a1 99 be 1a ec 08 3d 4e ae cb be
       -0.12422655 -0.30006114 0.03342829 -0.3978142
000250 da a5 b0 be 67 bf 8d 3e 1e 9b 76 3e 16 a5 7c 3e
       -0.34501535 0.2768509 0.2408261 0.2467235
000260 c8 ea 2a 3e 56 78 f7 bb 42 f8 6e 3e f3 df cd be
       0.16691124 -0.007552187 0.2333689 -0.40209922
000270 ee d2 f5 be 69 33 a2 be b7 8e b7 3e fc 12 ce be
       -0.4801249 -0.31679848 0.3585107 -0.4024886
000280 3f ba 9d be c4 ee e3 bd 2c 88 0c be 4e 07 48 3c
       -0.30806157 -0.11129525 -0.1372382 0.012208773
000290 1f b2 ac 3e e2 fa a3 be f5 2d c4 3e 98 55 3c 3e
       0.33729646 -0.32027346 0.38316312 0.18392026
0002a0 23 91 be be c6 0f 1a 3c 3a e5 30 be cf cf 85 bc
       -0.37220106 0.009403175 -0.17274943 -0.016334442
0002b0 72 ea 16 be e0 8c 90 3e 9c 04 e2 be 2d 0a 40 3e
       -0.14737871 0.2823248 -0.44144142 0.18753882
0002c0 70 9b 32 be 6b de d9 be 2f 65 06 bd 7f 4b ba be
       -0.17442107 -0.42552504 -0.03281134 -0.36385724
0002d0 7f d1 aa 3d f3 fc a3 3e ca ab 98 3e 68 83 6f 3e
       0.083407395 0.32028922 0.29818565 0.23389971
0002e0 1c c8 25 bd 59 c1 5f 3e b6 18 d6 bd 8a da 23 3d
       -0.040474042 0.218511 -0.10453932 0.040003337
0002f0 22 f8 ab bc c9 4d 9b be 58 38 ab 3e 16 38 00 36
       -0.020992342 -0.30332783 0.33441424 1.9106133e-06
000300 86 58 0a 3e 1e 18 8b bd 5d 05 45 be eb 1d 55 bd
       0.13510332 -0.06791709 -0.19240327 -0.052030485
000310 70 ee 45 be fc 80 78 be f8 10 61 be e2 07 6e 3d
       -0.19329238 -0.24267954 -0.2197913 0.058112986
000320 37 42 21 be 32 b3 08 be 48 1a 8f be cd bc 9a 3e
       -0.15747915 -0.13349608 -0.27949739 0.3022217
000330 15 4d 2b be 00 78 ac 3e b4 83 d9 3e f4 3d 41 be
       -0.16728623 0.33685303 0.42483294 -0.1887129
000340 71 6c 88 3e 53 21 a4 3e 61 37 95 be 5e e0 c2 bd
       0.26645234 0.32056674 -0.29143813 -0.09515451
000350 1c fa c7 3e 19 8e 3d 3e 4d f1 cb 3d fb 1c a5 be
       0.39058006 0.18511237 0.09958134 -0.32248673
000360 49 65 03 3d ab 32 96 3e d8 36 85 be 66 93 87 3e
       0.032079015 0.29335532 -0.26018405 0.26479644
000370 67 21 af be 81 59 8c be a4 f5 06 3e d0 54 e7 bd
       -0.3420517 -0.27412036 0.13179642 -0.112954736
000380 57 d7 d3 3d 18 2c b8 3e e7 2a 26 be 25 3e 57 3e
       0.10343807 0.3597114 -0.16227303 0.210198
000390 ee 76 be be 04 4c 93 be c3 cf 96 3e 46 00 9a be
       -0.3720011 -0.28768933 0.29455385 -0.30078334
0003a0 74 ed 74 be 17 04 2f 3e 05 f3 9c 3e 14 0d de 3d
       -0.23918706 0.17091404 0.3065416 0.10842338
0003b0 fa 1a aa 3e 29 7e 16 3e 23 72 bd 3d ce b3 89 be
       0.33223706 0.14696564 0.092502855 -0.26894993
0003c0 14 82 2d 3e e0 c2 6b 3e 05 96 e6 3e 36 4a 26 be
       0.16944152 0.23023558 0.4503633 -0.16239247
0003d0 77 a6 93 be 96 2c c7 3d 4e 5f 79 be 7e 83 b7 3c
       -0.2883794 0.09725301 -0.24352762 0.022401568
0003e0 ab ff 45 bd 6b 78 97 be 30 53 6c 3e 9a 48 8f be
       -0.048339527 -0.2958406 0.23078609 -0.27985078
0003f0 93 29 93 be 16 49 1b 3e a5 c0 3e 3d 6f 70 28 35
       -0.28742656 0.15164599 0.04657044 6.274849e-07

lin.bias f4 [6]
000000 ec 84 1d be 03 47 d8 3c 91 8c 6c 3e d2 5a 79 be
       -0.15382737 0.026401049 0.23100497 -0.24351051
000010 c4 69 a6 bd 01 6a 0a 3e
       -0.08125642 0.13517
